cat_dog.tflite (tflite, 520132 bytes, 6 tensors)

arith.constant f4 [2, 64]
000000 17 f4 57 3e 26 dc 91 bd 69 6e 22 3d a4 67 68 3d
       0.21089207 -0.07122068 0.039656077 0.056739464
000010 64 b6 1f bd d5 74 81 3e 3e 00 8f 3e 1b 95 12 3e
       -0.0389923 0.25284448 0.27929872 0.14314692
000020 74 36 a5 bd a6 13 9b 3c 6b be 1e be af ac 84 be
       -0.08067027 0.018930268 -0.15502326 -0.25912997
000030 63 8e 7c 3e ab 2c b7 3c e6 61 90 be 7b ae a0 3d
       0.24663691 0.022360167 -0.2819969 0.078457795
000040 e0 43 5c 3e aa cc 99 be c6 a5 06 3e ba bb 91 be
       0.21510267 -0.3003896 0.13149175 -0.28463537
000050 f0 42 51 3e 4c ac 6c 3e 83 01 39 bd 12 16 73 3d
       0.20435691 0.23112601 -0.045167457 0.05934722
000060 46 95 bc bd 44 11 3a 3c d8 b1 45 3e d2 57 0a be
       -0.09208159 0.0113566555 0.19306123 -0.13510063
000070 fe 7b 9b be 17 f6 94 be 35 ac 05 3e 50 12 8a 3e
       -0.30368036 -0.29094002 0.13053973 0.26967096
000080 27 24 51 3d 49 93 7c 3e 4c 1c 47 be d1 6f 89 be
       0.05105987 0.2466556 -0.19444388 -0.26843122
000090 1d 97 88 3e 9c 68 11 3e bf ad 74 be 04 36 8c 3e
       0.2667779 0.14200062 -0.23894404 0.2738496
0000a0 9d c5 85 3e 63 3e 0d 3e de 70 d6 bd c2 60 1a be
       0.2612733 0.1379333 -0.104707465 -0.15075973
0000b0 cc 0a 8b 3e 40 1a ed 3c b2 27 83 be 07 55 5a 3e
       0.27156675 0.028943181 -0.25616223 0.21321498
0000c0 dc 77 81 bb 65 7e 8f be e6 69 34 be 38 d9 35 be
       -0.003951056 -0.2802612 -0.17618522 -0.17758644
0000d0 fb f5 8e be f7 50 28 3e 2a d2 33 3e 1b f5 e6 bb
       -0.27922043 0.16437136 0.1756064 -0.007048262
0000e0 36 93 94 bc d0 92 18 bd df 0a 7a be 71 0a 2f 3e
       -0.018136602 -0.037249386 -0.2441821 0.17093827
0000f0 26 6f 56 bd a4 65 a2 bd 39 b4 4a be 91 c4 8b 3d
       -0.052352093 -0.07929543 -0.19795312 0.068246014
000100 dd 0a 5a 3e e9 13 41 3e 8f 35 88 be 7a 9a ad bc
       0.21293207 0.18855251 -0.26603362 -0.021191824
000110 36 16 d2 3d 5c bb 8a 3c 40 de bb 3d b1 58 c8 bd
       0.10258143 0.016935043 0.0917325 -0.097825415
000120 fa 86 f7 ba 7d 75 28 3d bc 28 3c be aa ee e5 3c
       -0.0018884831 0.04112767 -0.18374914 0.028067905
000130 05 0e 0d be 98 81 93 be 6c 7b c0 bd 4e 35 80 bc
       -0.1377488 -0.2880981 -0.09398541 -0.015650418
000140 93 91 4a 3d 53 27 bc bd e8 b3 65 3d 6a ea 06 3e
       0.049455237 -0.09187188 0.056079775 0.1317536
000150 dc 47 8f be 6e 5b a5 bd 8c fd 50 bd c6 6d 31 bc
       -0.27984512 -0.080740795 -0.05102305 -0.010829395
000160 c5 2f 60 be 6d b1 79 3e cc 5b 8c 3e 79 26 6d 3b
       -0.21893223 0.24384089 0.27413785 0.0036186262
000170 69 0c 8f be 18 72 29 be db e0 26 3d ca 2d e0 bc
       -0.27939156 -0.1654743 0.040741783 -0.027365584
000180 fd 6a 36 3e a3 b6 fd 3c 43 03 cf 3c 04 58 30 3e
       0.1781425 0.030970877 0.02527011 0.17221075
000190 46 e5 49 3b 1a 41 ad 3c 64 2d da bc f0 77 59 3e
       0.0030806824 0.021149207 -0.026632972 0.21237159
0001a0 19 88 28 3d c9 97 72 3e 16 6f f5 3c 8d b8 e7 3d
       0.041145418 0.23690714 0.029960196 0.11314497
0001b0 35 aa 6d 3d fc 04 37 3e f6 e6 5c 3e 18 3b d1 3a
       0.05802365 0.17872995 0.2157248 0.0015963046
0001c0 a3 af 90 be 15 dc 1c bd 3b db 9a 3e d5 25 6b 3d
       -0.28259 -0.038295824 0.30245385 0.057409126
0001d0 36 5c 5d 3e bf fa 2c bc 50 8b 84 3d 27 02 12 bd
       0.21617207 -0.010557829 0.06471884 -0.035646584
0001e0 19 1a ca bd fe 8a 07 3e f8 af 8c 3d f1 5a 37 be
       -0.09868259 0.13236615 0.06869501 -0.17905785
0001f0 ca 6e 00 be 6e 3c f0 bc 9c 77 14 be 64 38 37 3e
       -0.12542263 -0.02932569 -0.14498752 0.17892605

arith.constant1 f4 [64, 2016]
000000 ef 68 98 3c 43 11 26 bd 00 7b ed 3c 28 95 13 3c
       0.018604724 -0.040543806 0.028989315 0.00900773
000010 30 db 75 3b 5f 7a 3b bc 7f 26 bc bc 70 fe 19 bd
       0.003751468 -0.01144275 -0.022967575 -0.037596166
000020 f8 33 a2 3b 95 2d cd 3c b0 5f 88 3c 8d 3b 16 bd
       0.004950043 0.02504615 0.01664719 -0.036677886
000030 aa 89 e9 3c 79 fd a7 bc 43 8d e8 3c 26 aa 05 bd
       0.028508026 -0.020506607 0.028387671 -0.03263297
000040 a4 d0 15 bd 02 92 04 bd 1c 1e 1e 3c d2 fc 7f 3a
       -0.03657593 -0.032365806 0.009650733 0.0009765151
000050 14 92 89 bc 63 3b 29 3d cf 1b 95 3c 6e 92 47 bd
       -0.016793288 0.0413164 0.018201737 -0.04872363
000060 b8 ff 30 bd 13 f2 68 3c d2 96 c0 3b 33 dc bf bb
       -0.043212622 0.014217871 0.005877354 -0.005855107
000070 c3 f5 4d bd 1c f3 b3 3b 7c a6 44 bc f9 72 31 bd
       -0.050283205 0.0054916274 -0.012002584 -0.043322537
000080 c7 3a 78 3c 68 81 1f 3d 2b c6 07 3d 1b 82 3e bd
       0.015150732 0.03894177 0.033147972 -0.046510797
000090 e9 80 2f bd fe 49 13 3d c8 20 01 bd e5 e1 0a 3b
       -0.042847548 0.035959236 -0.031525403 0.0021191773
0000a0 5c ec 74 3c 59 76 05 bb 3a 08 0f bd ab 9a a3 3c
       0.014948931 -0.002036473 -0.034919955 0.019971212
0000b0 7b 20 19 3d 46 1e 3a bc 3f 8d 2e bd c0 5f 36 3a
       0.03738449 -0.011359757 -0.04261517 0.0006957017
0000c0 90 a9 68 bc e5 82 0e 3d 42 1d 4e 3d 0f 85 ea bc
       -0.014200583 0.0347928 0.05032087 -0.0286279
0000d0 de 3d f3 3c 14 28 c4 bc 17 54 2c 3b 63 78 fc bc
       0.029692587 -0.023944892 0.0026295239 -0.030819124
0000e0 77 53 92 3b 74 49 cb bc 18 cd ec bc f4 82 c6 3c
       0.004465516 -0.024815299 -0.02890639 0.024232365
0000f0 4b 8b 51 bc 2e ef 30 3c cc 83 4e 3c 2b 9e ee bc
       -0.012789558 0.010799212 0.012604665 -0.029128155
000100 61 95 ea 3c 2d 6a 4c 3d a8 c4 e1 bc 5e 9a 04 3d
       0.028635683 0.049905945 -0.027559593 0.03237378
000110 e0 63 d6 3b 6a be b9 bc 81 a2 88 3c f2 05 19 bd
       0.0065426677 -0.022673804 0.01667905 -0.037359186
000120 80 40 75 3b 22 a6 99 3b 76 76 ec bb cd 76 39 3d
       0.0037422478 0.004688994 -0.00721627 0.045279313
000130 1a a2 c5 3c 03 4f f5 bb 0b 59 28 bd 08 f0 38 bc
       0.024125148 -0.0074862256 -0.041100543 -0.011287697
000140 2f fd 52 3d 3a 07 ff bc 52 e5 de 3b d6 79 13 3d
       0.051510986 -0.031131376 0.0068022395 0.036004864
000150 54 78 e8 3c 4e 1f f5 bc 65 6c 95 3c 90 ba af bb
       0.02837769 -0.029922154 0.018240163 -0.005362816
000160 c0 cc c9 3b f5 ee de bb 97 5d b7 bc 13 55 fc bc
       0.0061584413 -0.0068033882 -0.022383494 -0.030802285
000170 29 11 80 bc 14 ff 20 3c 30 b8 fd 3b 89 23 38 bd
       -0.015633183 0.00982644 0.007742904 -0.044955764
000180 12 2e 32 bd 1f e2 09 3b 1f 86 cc 3c 78 5e 93 bc
       -0.043500967 0.002103932 0.024966298 -0.017989382
000190 d4 cb 0f 3c 0a be 0e 3d be 5e e6 3c 7c a1 53 3d
       0.008776624 0.034849204 0.028121348 0.051667675
0001a0 80 13 42 3a c2 3d 4a 3d 9f 6d 6c bd e7 50 12 bd
       0.00074034184 0.049375303 -0.05772173 -0.035721686
0001b0 4a 9e 0a bd 8b 59 42 bc e9 72 3b 3d a0 5b 7d bb
       -0.033842362 -0.011862169 0.045763884 -0.003865935
0001c0 21 59 cb bc 59 5b 26 bd 19 56 b3 3c c0 01 68 3c
       -0.024822773 -0.04061446 0.02189164 0.0141605735
0001d0 6c b9 8f 3c 27 59 59 3d 70 6b da 3c 67 c5 e3 bc
       0.01754447 0.053063538 0.026662558 -0.02780409
0001e0 81 ae 13 3d eb 07 d6 bc 4f 68 2d 3d 3b d8 34 bd
       0.03605509 -0.026126822 0.042335805 -0.044151526
0001f0 24 c8 e5 3c 2b 36 e7 bc 8c 79 34 bd f7 fa ff bc
       0.028049536 -0.028224071 -0.04406123 -0.031247599
000200 d5 f4 e8 3c 80 c5 fa 3c f0 a1 36 3d 33 f8 a1 bc
       0.028437058 0.030611753 0.04458803 -0.01977167
000210 f7 5e e7 bc 3f 10 2c 3b 69 56 2e bc 04 b9 9b bc
       -0.028243525 0.00262548 -0.010640719 -0.01900912
000220 37 dc 37 3d 16 36 ef bc 50 30 95 3c 15 17 b3 3a
       0.044887748 -0.029200595 0.018211514 0.0013663495
000230 c0 09 f8 bb 89 d3 df 3c 9a 2f e4 bc 1b 03 2e 3d
       -0.0075695217 0.027322548 -0.02785473 0.04248343
000240 78 db 98 3b 50 9c 54 bd e1 15 c8 3c ee f5 47 3d
       0.0046648346 -0.051906884 0.024424495 0.04881852
000250 89 82 c5 bc 17 68 f0 3a d0 44 8f bb c8 af 09 bc
       -0.024110096 0.0018341568 -0.0043722168 -0.008403726
000260 b9 c3 55 bc 15 0b 46 3d a8 0f b8 3c 52 00 ff bc
       -0.013047152 0.048350412 0.022468403 -0.031128082
000270 7f be 50 3c 4e 3b 3d bd d0 ed 1f bc 98 d1 50 3d
       0.01274073 -0.046199135 -0.009761289 0.050981134
000280 a0 b0 bb bc ca 39 3d 3d 78 e5 2f 3d 71 9a 0a 3d
       -0.02291137 0.04619769 0.042943448 0.033838693
000290 f0 d3 80 bc 90 5d 20 3d f4 d8 f9 3c 77 1c 49 bb
       -0.01572606 0.03915173 0.03049896 -0.0030687132
0002a0 57 40 0b 3d 37 df ca bb 71 0a 7d 39 38 f3 ab 3b
       0.033996906 -0.00619116 0.0002413185 0.0052475
0002b0 32 5e bb 3c 30 bc 49 3d 3c 87 5c 3c 9e c5 95 bc
       0.022872064 0.049251735 0.013459977 -0.018282708
0002c0 78 4e 34 bc 95 66 4a 3d 32 49 9a 3c 99 b8 35 3d
       -0.0110050365 0.049414236 0.01883373 0.0443655
0002d0 33 9f ec bc c5 ab 5b 3d 64 a8 38 bd a9 43 11 3d
       -0.028884506 0.05363061 -0.045082465 0.035464916
0002e0 5a 1d 33 bd ee 85 e3 bc 15 f4 cd 3c 5a bb 11 bd
       -0.043729164 -0.027773824 0.025140801 -0.035579063
0002f0 97 a0 cf bc e6 7d 22 bd 3c 5f 11 bc be 33 e0 bc
       -0.02534513 -0.039670847 -0.008872803 -0.027368423
000300 61 97 fa bc 9f 60 a2 bc 9e e5 57 bd 62 42 a0 3c
       -0.030589761 -0.019821463 -0.052709214 0.019562904
000310 90 dc 2a bc 18 88 f6 bc ef 35 40 bd 60 f6 20 3a
       -0.010428563 -0.030094191 -0.046926435 0.00061402284
000320 7c f9 43 3c 64 a6 4c bd 28 33 e8 bc 2e 70 80 3c
       0.011961337 -0.04996337 -0.028344706 0.015678491
000330 80 33 89 bc 14 d1 d0 bc f9 63 26 3d aa e7 13 bd
       -0.01674819 -0.025490321 0.040622685 -0.036109604
000340 13 dc 06 3d 27 57 43 3d 32 3f 36 3d 41 f4 f1 3b
       0.032924723 0.047690537 0.04449386 0.0073838537
000350 80 4f ab 3c 72 9c 2e bd 7f a4 33 3d 3d 06 0f bd
       0.020911932 -0.042629667 0.043858048 -0.03491806
000360 b0 92 23 bd 03 b0 2e bc 3d d0 48 3d c0 8b bf bc
       -0.039934814 -0.010662082 0.049026717 -0.023382068
000370 63 43 2f 3c 49 a6 b5 3c 25 f3 08 3d 6e 07 61 3d
       0.010697219 0.022174018 0.033435006 0.054938726
000380 d7 1e 3b bd 70 e0 33 3d a4 97 d7 bc 29 5b 01 bd
       -0.045683708 0.043915212 -0.026317425 -0.031581078
000390 4c b7 69 bc 19 20 1a 3d 40 46 11 3d 97 a4 48 bd
       -0.014264893 0.037628267 0.035467386 -0.04898509
0003a0 4e 6c 05 bd ad 6c 02 3d ad 13 b1 bc 6f cf 2a 3d
       -0.03257399 0.031841923 -0.021615827 0.04170173
0003b0 6c 28 4e bd 65 96 a8 bc cd 44 26 3b 72 5e 36 bd
       -0.050331518 -0.020579526 0.0025370598 -0.044523664
0003c0 d8 cc 05 bd fa 91 95 3c f1 29 10 3b eb 51 62 3c
       -0.032666057 0.018258084 0.0021997655 0.013813476
0003d0 ee 00 c5 3c f7 52 6c 3a 29 19 9d bc a8 61 77 bc
       0.024048295 0.0009015048 -0.019177036 -0.015098967
0003e0 55 34 f4 3c a7 ad 98 b8 4b 8d 0d bd 6b 71 97 bb
       0.02981011 -7.28027e-05 -0.034558576 -0.004621675
0003f0 31 7f b9 3b ee b0 f8 bb 40 d6 77 bc 8e 75 0d bd
       0.0056609144 -0.007589451 -0.015126765 -0.034535937

arith.constant2 f4 [2]
000000 bd d4 76 3c bd d4 76 bc
       0.015065369 -0.015065369

arith.constant3 f4 [64]
000000 40 1c fa bb d0 18 02 bc 73 fc 17 3c 10 b4 47 3c
       -0.007632762 -0.007940486 0.009276497 0.012188926
000010 7d 4c 3e bb 6c 25 a9 3c e0 98 82 3c 42 54 24 3c
       -0.002903729 0.020647727 0.015942037 0.010029854
000020 bc 5e 93 bb 10 e8 cc ba 2e b0 55 3c 8a 16 a3 bb
       -0.004497377 -0.0015633125 0.013042493 -0.004977052
000030 e0 57 b3 3c 75 3b 74 3c 07 41 e4 bb bc 17 56 3c
       0.021892488 0.014906754 -0.0069657597 0.013067182
000040 71 f8 a9 3b 0a 84 22 bb a7 ad 8e 3c 60 22 0b bc
       0.005187087 -0.002479794 0.017416788 -0.008492082
000050 1d e7 91 3c 9e af 4d 3c 52 77 33 3c 2f c3 8d 3c
       0.017810399 0.012554077 0.010953741 0.017304985
000060 4e 78 9c 3c 2d 44 88 bb be 7a 08 bc 01 ed 47 bc
       0.019100334 -0.004158518 -0.008330045 -0.012202502
000070 09 4d 3f bc 84 f3 ac bb 39 c4 78 3c bf d2 76 3c
       -0.011676081 -0.0052780528 0.015183502 0.015064894
000080 2c 3e 2f bc 42 a2 8b 3c a9 48 08 bb 2e 3d 61 bc
       -0.010695975 0.017045144 -0.0020795262 -0.0137474965
000090 4f 64 6b 3c fa 17 82 3c 25 76 1b bc 91 93 8f 3c
       0.014367177 0.015880574 -0.009488617 0.01752642
0000a0 64 0f 9f 3c f3 72 95 bb 98 36 03 bc 50 e1 31 bc
       0.019416519 -0.004560822 -0.008008622 -0.010856941
0000b0 42 11 8c 3c 8e ca a9 bb 15 cc bc ba 52 b8 9a 3c
       0.017098073 -0.005181617 -0.0014404083 0.018886719
0000c0 26 7d 9a 3c f5 a3 53 bb 8c 91 2c bc 7f e0 ab bb
       0.018858504 -0.003229377 -0.010532748 -0.005245268
0000d0 ab ec 59 bc e9 ba 87 bb 3c 3a 66 3c 9c 5e 7e 3c
       -0.013301055 -0.0041421545 0.01405197 0.015525486
0000e0 7c 39 b0 3c 1b 68 96 bb d4 2f 18 bc 65 d9 8d 3c
       0.021511786 -0.004590047 -0.009288747 0.017315576
0000f0 62 ea 8e 3c d9 04 06 bc 17 8d 3e bc e5 b2 e3 bb
       0.017445747 -0.008179867 -0.011630318 -0.006948816

sequential_2_1/conv2d_1/convolution f4 [32, 3, 1, 1]
000000 1a 5d 2b be ea 8c ef bd f3 80 0c 3e 61 6a 5f 3e
       -0.16734734 -0.11696799 0.13721065 0.21817924
000010 84 0a 31 3e 88 b8 20 be 19 3a a3 bd 6d e3 e9 3d
       0.17289168 -0.15695393 -0.079700656 0.11420331
000020 7b 2a 39 be f2 8a 5b be 98 28 f5 3d 12 58 e9 bd
       -0.18082611 -0.21439722 0.11970633 -0.11393751
000030 e0 ef 3e be b5 20 69 be 34 87 1c be 7d 2a 8a 3d
       -0.18646193 -0.22766383 -0.15285951 0.06746385
000040 8e ca 69 bd 73 2a 5c 3e c6 a6 b9 3d 60 94 f8 bc
       -0.057077937 0.21500568 0.09065013 -0.030344188
000050 2b e6 5b be 23 b4 58 3e 87 f4 d0 bd 88 89 4b 3d
       -0.21474521 0.21162467 -0.1020289 0.049691707
000060 e2 89 d4 bd 02 2b 22 be c8 8f f4 bc 9a 8b a1 3d
       -0.103778616 -0.15836719 -0.029853716 0.07887955
000070 30 f6 30 3d 77 3b 01 be 76 1d 53 be a2 0e 48 be
       0.043203533 -0.1262034 -0.20616707 -0.19536832
000080 94 1d 5c 3e 79 86 ac 3c 5e d9 51 3e d6 e4 42 be
       0.21495658 0.021060215 0.20493075 -0.19032606
000090 a8 a0 77 be 28 e5 61 3d 48 fe 33 be 2c a5 32 bd
       -0.24182379 0.05515018 -0.1757747 -0.04361455
0000a0 3f 25 79 be f3 82 2c 3e 25 94 0f 3e c5 97 4d be
       -0.24330615 0.16846828 0.14021356 -0.20077427
0000b0 32 20 82 3d 36 0c 0e be 42 79 6b be 90 a9 fc bd
       0.06353797 -0.13871846 -0.22995475 -0.12337029
0000c0 60 15 18 bc 28 e7 d2 bd 4e 10 c9 bd 3c a1 1c bd
       -0.00928244 -0.10297996 -0.09817563 -0.038239703
0000d0 72 b6 8c bd 2e 8d 2f be 73 9f 37 3e 75 36 10 be
       -0.06870736 -0.171437 0.17931919 -0.14083274
0000e0 d2 e4 ef 3c 2e fe 07 3e 4b 05 13 be d9 2a d9 3d
       0.029283915 0.13280556 -0.14357488 0.10603876
0000f0 a2 dd 3a 3e 8f 42 e4 bb d5 a1 44 3c 88 b3 20 be
       0.18248609 -0.006965942 0.012001474 -0.15693486
000100 16 b1 f6 3d 2a bc 34 be 1e 6c 10 be 7c c5 bb bd
       0.12045495 -0.17649904 -0.14103743 -0.091685265
000110 43 68 ae 3d a3 a6 1d be 00 e7 f8 3b 10 24 db bc
       0.0851598 -0.15395598 0.0075958967 -0.026750594
000120 cc 62 04 3e 01 a4 5b 3e 20 01 5f be b4 d9 27 be
       0.12928313 0.21449281 -0.21777773 -0.16391641
000130 78 e4 4a 3e ee e9 ec bb 54 56 d0 bd df 89 63 3e
       0.19813716 -0.007230035 -0.10172716 0.22220562
000140 5e bb df bd b9 30 66 be f6 d4 64 3e f7 e3 51 be
       -0.10924409 -0.22479524 0.22346863 -0.20497118
000150 62 c2 ec 3c b1 98 c1 3d 91 ea da 3d 5d 56 49 be
       0.028901283 0.09452952 0.10689271 -0.19661851
000160 32 dd 2a 3e 82 65 69 3d ae 82 19 be 98 b9 7b be
       0.16685942 0.05698157 -0.14991257 -0.24582517
000170 e0 29 cb bd 62 20 0a 3e 83 0c c9 bd f6 45 2d 3a
       -0.099200964 0.13488916 -0.098168395 0.0006609851

sequential_2_1/conv2d_1/Relu;sequential_2_1/conv2d_1/BiasAdd;sequential_2_1/conv2d_1/convolution; f4 [32]
000000 66 8c 9e 3c 79 05 a9 3c f0 ec 6b 3c 96 58 8a 3c
       0.019354057 0.020632492 0.014399752 0.016887944
000010 00 00 00 00 cb c7 39 3c 1a 2e b1 3c 48 94 73 3c
       0.0 0.011339138 0.021628428 0.014866896
000020 00 00 00 00 3e 54 53 3c a3 10 b0 3b 29 d7 95 3c
       0.0 0.012898503 0.005373077 0.018291073
000030 7c 13 b1 bb f0 f6 93 ba a0 b0 91 bb 00 00 00 00
       -0.005403934 -0.0011288803 -0.004446104 0.0
000040 00 00 00 00 00 00 00 00 01 f7 5b 3c 52 1d 09 bc
       0.0 0.0 0.01342559 -0.008368807
000050 31 75 34 3c cb be 1d bc c8 49 62 3c 00 00 00 00
       0.011014269 -0.009628008 0.013811536 0.0
000060 58 94 a5 3c 6d 0d 43 bb a4 a6 5a bb b1 a6 b5 3c
       0.020212337 -0.002976264 -0.0033363486 0.022174211
000070 1d ec cf 3b 56 86 b7 bb 00 00 00 00 a9 9e a6 3c
       0.0063452856 -0.005600731 0.0 0.020339327
